param.pth (torch, 130984 bytes, 7 tensors)

0.weight f4 [200, 33]
0	0xbc0f1134	-0.008732129
1	0xbadbd0ce	-0.0016770603
2	0x3d5f3ad3	0.05449946
3	0x3ecd58f9	0.40106943
4	0x3d9ea2a6	0.077458665
5	0x3e31fbac	0.17381161
6	0x3dcf3a70	0.10118568
7	0x3e40bdda	0.18822423
8	0xbdb75852	-0.08952393
9	0x3cca945b	0.024728945
10	0x3dc03a6e	0.093861446
11	0xbd9e45d3	-0.07728162
12	0x3e8f7423	0.28018293
13	0x3d66f021	0.05638135
14	0x3e76c832	0.24099806
15	0x3e1cd671	0.15316178
16	0x3ea836af	0.3285422
17	0xbe49420a	-0.19654098
18	0xbd2d00da	-0.04223714
19	0x3eb3e22a	0.35133487
20	0x3e049079	0.12945737
21	0x3e19d0f4	0.15021116
22	0xbca88341	-0.0205704
23	0xbe2e3bcd	-0.17015
24	0xbf213925	-0.6297782
25	0xbd150376	-0.036380254
26	0x3e841c44	0.25802815
27	0x3d908e99	0.07058448
28	0xbd64f5de	-0.05589854
29	0x3d16cf39	0.036818717
30	0x3ea4122f	0.32045123
31	0xbdf99e3e	-0.121883854
32	0xbebb218c	-0.36549032
33	0xbda70c59	-0.08156652
34	0xbd76b9f8	-0.060235947
35	0x3cae7280	0.021294832
36	0x3e3466ac	0.17617291
37	0x3e659f9f	0.22424172
38	0x3e9207d4	0.28521597
39	0xbf9286d9	-1.1447402
40	0xbd7bf6f3	-0.061514806
41	0xbe04079a	-0.12893525
42	0x3eb1c25e	0.34718603
43	0x3efd9ff0	0.49536085
44	0xbeb3cbc3	-0.35116395
45	0x3aa38d42	0.0012478011
46	0x3e23bac1	0.1598921
47	0x3e0f6a60	0.14005423
48	0x3e7fa82a	0.24966493
49	0x3e356b55	0.17716725
50	0xbc6c8d16	-0.014437934
51	0x3d59ef2f	0.05320662
52	0xbe92b670	-0.28654814
53	0x3e24305f	0.16034077
54	0x3c9a3035	0.018821815
55	0x3ed2ee16	0.4119727
56	0x3c92a327	0.017900063
57	0x3dc176d3	0.09446492
58	0x3e096a3d	0.13419433
59	0xbe8d38d5	-0.27582422
60	0xbe2c8ee1	-0.16851379
61	0xbe3c0442	-0.18360999
62	0xbca627dd	-0.02028268
63	0x3d24f3df	0.040271636
64	0x3e5bdf38	0.2147187
65	0x3dd81651	0.105511315
66	0xbc81a038	-0.015823469
67	0xbe9c3c55	-0.3051478
68	0xbe161959	-0.14658107
69	0xbe323771	-0.17403962
70	0x3e8b2ead	0.27184048
71	0x3dc6bbe3	0.09703805
72	0x3ee415b6	0.44547814
73	0xbe37fc9c	-0.17967457
74	0xbeba6f1e	-0.364129
75	0xbe159b87	-0.1461011
76	0xbe75a557	-0.23988853
77	0xbcceb31b	-0.025231889
78	0xbd20e208	-0.03927806
79	0x3dd1c403	0.102424644
80	0xbd0004f4	-0.031254724
81	0xbe101f88	-0.14074528
82	0x3d544bf9	0.051830266
83	0xbe87b819	-0.26507643
84	0x3e23b270	0.15986037
85	0xbe4004b2	-0.18751791
86	0xbdd3bb8e	-0.103385076
87	0xbe9f655c	-0.3113202
88	0xbe863f9c	-0.26220405
89	0x3e8a08c6	0.2695982
90	0x3dfb3764	0.12266424
91	0x3defc2a2	0.11707045
92	0xbd2e044b	-0.042484563
93	0x3e558fd5	0.20855649
94	0xbdbb589c	-0.0914776
95	0xbe8a0b56	-0.26961774
96	0xbdc391c9	-0.09549291
97	0x3d0e40d8	0.03472981
98	0x3b81761d	0.003950848
99	0xbe85f4a1	-0.261632
100	0xbe66b096	-0.225283
101	0x3d8a8583	0.067637466
102	0x3c762ca2	0.01502529
103	0xbe935231	-0.28773645
104	0x3d8230d1	0.06356967
105	0x3e4f8272	0.20264605
106	0xbd9ea419	-0.07746143
107	0xbe350bda	-0.17680302
108	0xbe2316f7	-0.15926729
109	0xbe7725d7	-0.24135529
110	0x3e82a17a	0.25513822
111	0x3dbcdf3f	0.09222268
112	0x3d199fd5	0.037505943
113	0xbe80b4f2	-0.2513805
114	0x3cab09a3	0.020878619
115	0xbc5b49d9	-0.013384306
116	0xbe8f3557	-0.27970383
117	0xbe35b5a7	-0.17745076
118	0x3da6842d	0.08130679
119	0xbd1f94f3	-0.03896041
120	0x3c3d7ddf	0.011565655
121	0xbe8bf06b	-0.27331862
122	0x3d98606f	0.07440268
123	0xbcef5ed8	-0.02922003
124	0x3cf5df32	0.030013654
125	0x3d61118a	0.054948367
126	0x3e1037cd	0.14083786
127	0x3ec02a1b	0.37532124
128	0x3edfdd65	0.43723598
129	0xbd30b052	-0.043136902
130	0x3d2a0fb2	0.041518874
131	0x3dd1bef3	0.10241499
132	0x3de82a7d	0.11336229
133	0x3e092d76	0.13396248
134	0xbdbbc633	-0.09168663
135	0xbdf3f04c	-0.11911067
136	0xbe980c10	-0.29696703
137	0x3de38452	0.111092225
138	0xbd41df99	-0.04733238
139	0xbe2ded06	-0.16984949
140	0x3e3076c0	0.172328
141	0xbed4e189	-0.4157832
142	0x3c9f5a4f	0.019452242
143	0x3d759b28	0.05996242
144	0xbe5b07af	-0.2138965
145	0x3cdfb06d	0.027305806
146	0xbd399dc6	-0.04531648
147	0x3e73c78f	0.23806594
148	0x3da3f893	0.08006396
149	0xbeaa531f	-0.3326654
150	0x3e65c264	0.22437435
151	0x3d3e53b4	0.046466544
152	0xbd778163	-0.060426127
153	0xbe0a4b12	-0.135052
154	0x3f0fdb34	0.5619385
155	0x3e805e37	0.2507188
156	0x3f0da320	0.55327034
157	0x3edfc10d	0.43701974
158	0x3e318492	0.17335728
159	0xba8386a4	-0.0010034633
160	0x3ec5208a	0.38501388
161	0x3c04ae1d	0.0080981525
162	0xbd8890a7	-0.06668215
163	0xbea81e2e	-0.32835525
164	0x3ef57704	0.47942364
165	0xbc025ddf	-0.007956951
166	0xbe461d2a	-0.19347063
167	0x3d9ba0c9	0.07599027
168	0x3e8f6d5c	0.28013122
169	0x3dfc52b9	0.123204656
170	0x3dd6321c	0.10458776
171	0xbeb6247b	-0.35574707
172	0x3f0dbdea	0.5536791
173	0xbd3bfa9b	-0.045893293
174	0x3d912ddb	0.07088824
175	0x3bba4c45	0.0056853616
176	0xbde26876	-0.110550806
177	0x3e8a9c89	0.27072552
178	0x3ec4b1af	0.38416812
179	0x3d7f5684	0.062338367
180	0x3e3dbabf	0.18528269
181	0x3e6e1bbc	0.23252767
182	0xbe05b86f	-0.13058637
183	0x3e364216	0.17798647
184	0x3e766427	0.24061643
185	0x3e7e7226	0.24848232
186	0x3e03d009	0.12872328
187	0x3d16e19a	0.036836244
188	0xbd908603	-0.07056811
189	0xbdaa0395	-0.083014645
190	0x3e19131a	0.14948693
191	0x3dc74d9e	0.09731601
192	0x3dbfc105	0.093629874
193	0xbdfb980f	-0.12284862
194	0xbcacf145	-0.02111114
195	0xbdc11c31	-0.09429205
196	0x3e688180	0.2270565
197	0xbddcb493	-0.10776629
198	0xbd9aba10	-0.0755502
199	0xbd8c86af	-0.06861626
200	0xbdc7a50f	-0.09748279
201	0x3e463c53	0.1935895
202	0x3d1a9a33	0.037744712
203	0x3e854f02	0.2603684
204	0x3e22805d	0.15869279
205	0x3df7b2c1	0.120946415
206	0xbd91e672	-0.07124032
207	0x3d1fee0a	0.03904537
208	0x3e0749ab	0.13211696
209	0xbd288a69	-0.041147623
210	0x3e8b009c	0.27148902
211	0xbd86a01c	-0.06573507
212	0xbe059838	-0.13046348
213	0x3e03ec3a	0.12883082
214	0x3e55c1dd	0.20874734
215	0xbd72aad2	-0.05924494
216	0x3e1f7dab	0.15575282
217	0x3d6e4f0d	0.058180857
218	0x3d967f20	0.07348466
219	0x3d34bc7f	0.044125076
220	0xbd31eb62	-0.04343737
221	0xbd129bcf	-0.035793122
222	0xbf0a6a51	-0.54068476
223	0xbd5ea05c	-0.05435215
224	0xbd907b6d	-0.070547916
225	0x3d2969f6	0.041360818
226	0x3e304461	0.17213584
227	0x3ceac1a2	0.028656784
228	0xbd2e0bbe	-0.042491667
229	0xbed94c9a	-0.42441255
230	0xbf1c0075	-0.609382
231	0xbc2f3815	-0.010694523
232	0xbd4da417	-0.050205316
233	0x3db406ea	0.08790381
234	0x3c9f5dc6	0.019453894
235	0x3e10e509	0.1414987
236	0x3d902d48	0.07039887
237	0xbf74564a	-0.95444167
238	0xbed1269c	-0.4084977
239	0xbe30832a	-0.17237535
240	0x3e00e974	0.12589055
241	0x3e7206c0	0.23635387
242	0xbf2022df	-0.6255321
243	0xbdecbee1	-0.11559845
244	0x3e4674ba	0.19380465
245	0xbdd4f881	-0.10398961
246	0xbdd1b240	-0.102390766
247	0x3e4182b7	0.1889752
248	0x3dd139a5	0.10216073
249	0x3e78b969	0.24289478
250	0xbe55aaf1	-0.2086599
251	0xbe43f117	-0.19134937
252	0xbe09cd90	-0.13457322
253	0x3edd7fcd	0.43261567
254	0xbdbe7c30	-0.09301031
255	0xbcb82554	-0.022478737

0.bias f4 [200]
0	0xbdec1e9d	-0.115292765
1	0x3da8fcf3	0.08251371
2	0xbddd5fd7	-0.108092956
3	0xbe6704d7	-0.2256044
4	0xbe957245	-0.29188743
5	0xbae32174	-0.0017328695
6	0xbea6d7ea	-0.32586604
7	0x3c9906a1	0.018679919
8	0xbead29de	-0.33821005
9	0xbe8b487a	-0.27203733
10	0xbe1b21f6	-0.15149674
11	0xbdf4fb94	-0.11962047
12	0xbe39d50a	-0.18147674
13	0xbd6d81fb	-0.057985287
14	0xbdfd6499	-0.12372703
15	0x3d45cc6f	0.048290666
16	0xbf0134a1	-0.5047093
17	0xbde0f2ef	-0.10983836
18	0xbd5a4d6f	-0.053296503
19	0xbd8b9551	-0.06815589
20	0xbf3f9bef	-0.7484731
21	0xbda0edf3	-0.07857885
22	0xbe85dc0b	-0.26144442
23	0xbdc43a6f	-0.09581458
24	0xbf0f5c64	-0.5600035
25	0x3dae60aa	0.08514531
26	0xbf565d20	-0.8373585
27	0xbf508bc7	-0.81463283
28	0xbc6eee45	-0.014583175
29	0xbd90170a	-0.07035644
30	0xbe8638ea	-0.26215297
31	0xbddeb601	-0.10874558
32	0xbe2b0204	-0.16699988
33	0xbdc6943c	-0.09696242
34	0xbe4773c1	-0.1947775
35	0xbce1ea10	-0.02757743
36	0x3ccc7335	0.024957279
37	0xbdae374a	-0.08506639
38	0xbe997af5	-0.2997662
39	0xbd269930	-0.040673435
40	0xbef6549a	-0.4811142
41	0xbf1efcb1	-0.62104326
42	0xbe50a6e4	-0.20376164
43	0xbdb8ffc2	-0.09033157
44	0xbe8ba3e1	-0.27273467
45	0xbf501eaa	-0.8129679
46	0xbe8eb0fd	-0.27869406
47	0xbf2eb2a3	-0.6824133
48	0xbe19d34f	-0.15022014
49	0xbd5f30c2	-0.05448986
50	0xbf05ee14	-0.52316403
51	0x3ceae01e	0.02867132
52	0x3c3a54df	0.011372774
53	0xbd7061f7	-0.058687177
54	0xbcff1cee	-0.031141724
55	0xbf809f72	-1.0048659
56	0xbd204ad8	-0.039133877
57	0xbd5d17a2	-0.053977616
58	0xbbc47de8	-0.0059964545
59	0xbf15203f	-0.5825233
60	0x3d16828c	0.036745593
61	0xbd3d9f56	-0.046294533
62	0xbf7d098a	-0.9884268
63	0x3c2f8cd9	0.010714733
64	0xbf2d3e65	-0.6767333
65	0xbd5e5214	-0.054277495
66	0xbb24bb09	-0.0025135896
67	0xbd123591	-0.035695616
68	0xbda27c03	-0.079338096
69	0xbf4d2a3e	-0.8014258
70	0x3d7f87da	0.062385418
71	0xbcbb384d	-0.022853995
72	0xbe74c4f8	-0.23903263
73	0xbe3f4ce3	-0.18681674
74	0xbe23fa2f	-0.16013406
75	0x3da53207	0.080661826
76	0xbb9a9410	-0.0047173575
77	0x3e0a7daf	0.13524507
78	0xbd82949b	-0.063760005
79	0xbf735628	-0.9505334
80	0xbe5c0dbe	-0.21489617
81	0xbe2e162a	-0.17000642
82	0xbf7d7239	-0.99002415
83	0xbda73a1a	-0.08165379
84	0x3c2fafa6	0.01072303
85	0xbed995c3	-0.42497072
86	0xbf7cbd30	-0.9872618
87	0x3d6979cf	0.05700093
88	0xbc8b51ff	-0.017006872
89	0xbe88459a	-0.26615602
90	0xbf48ea84	-0.7848284
91	0xbee0ce79	-0.43907526
92	0xbe11d607	-0.14241801
93	0x3ce833bb	0.02834498
94	0xbda756f0	-0.08170879
95	0xbe39f653	-0.18160371
96	0xbdc91281	-0.098179825
97	0xbf1d48ba	-0.61439097
98	0xbe113440	-0.14180088
99	0x3d074b6e	0.03303092
100	0xbefad501	-0.48990634
101	0xbe07cb01	-0.13261034
102	0x3d052835	0.032509048
103	0xbd649e14	-0.055814818
104	0xbd22e1ae	-0.039766006
105	0xbdddca77	-0.10829633
106	0xbe5667d4	-0.20938045
107	0x3de66786	0.11250214
108	0xbf28be7c	-0.65915656
109	0xbd0acf32	-0.033889003
110	0x3e0d3c84	0.13792616
111	0x3cad4a00	0.02115345
112	0xbdbae864	-0.09126356
113	0xbe308ba9	-0.17240776
114	0x3d3ad3ee	0.04561227
115	0xbda1bfc6	-0.07897906
116	0xbf552bdb	-0.83270043
117	0xbca35aeb	-0.019940814
118	0xbd88d44b	-0.06681117
119	0xbf2b1718	-0.66832113
120	0x3d4c9ae1	0.04995239
121	0xbe52403d	-0.20532317
122	0xbef023a0	-0.4690218
123	0x3cd6b1f3	0.0262079
124	0xbde87362	-0.113501325
125	0xbe545716	-0.20736346
126	0x3d83eed3	0.064420365
127	0xbf691db4	-0.9106095
128	0xbe0a1b33	-0.13486938
129	0x3d171793	0.036887717
130	0x3d212468	0.03934136
131	0xbe35e243	-0.17762093
132	0xbea4c386	-0.32180423
133	0xbe7599dc	-0.23984474
134	0xbdb660db	-0.089051925
135	0xbe16dd8e	-0.14732954
136	0xbd915ec4	-0.07098153
137	0xbe14f9d4	-0.14548427
138	0xbe94309d	-0.2894334
139	0xbe7e00eb	-0.24805038
140	0xbcea08d3	-0.02856866
141	0xbdb2a89f	-0.08723568
142	0xbe94e435	-0.29080358
143	0xbd189cd5	-0.03725894
144	0xbe2240bd	-0.15845008
145	0xbf2ae8ba	-0.6676136
146	0xbc8c6d1d	-0.017141873
147	0x3bcf49b8	0.0063259266
148	0xbdff54c0	-0.12467337
149	0xbf073883	-0.52820605
150	0xbe821458	-0.25406146
151	0xbd98bf3e	-0.074583516
152	0x3d9e7df0	0.077388644
153	0xbe43e22a	-0.19129243
154	0xbf9534c7	-1.1656731
155	0x3c3f82c1	0.011688889
156	0xbb83b9c7	-0.004019949
157	0xbf22ed2f	-0.63643163
158	0xbd8dbd92	-0.06920923
159	0xbe243052	-0.16034058
160	0xbf5bde2b	-0.85885876
161	0xbd1d5ac3	-0.038416635
162	0xbdd913a3	-0.105994485
163	0x3db1ba42	0.08678104
164	0xbe620279	-0.22071256
165	0xbe0a12a8	-0.1348368
166	0xbe82e798	-0.25567317
167	0xbc8dbd87	-0.017302288
168	0x3d98273e	0.0742936
169	0xbe588d81	-0.2114773
170	0xbe7fd6ba	-0.24984255
171	0x3d631128	0.055436283
172	0xbe3d3024	-0.18475395
173	0xbeb9b2de	-0.36269277
174	0xbd984a67	-0.07436066
175	0xbdfc696f	-0.12324797
176	0xbcd30b35	-0.02576218
177	0xbe1db735	-0.15401919
178	0xbe075897	-0.13217388
179	0xbdbe0068	-0.09277421
180	0xbdde4f20	-0.10854936
181	0xbe696e93	-0.22796087
182	0xbd13f347	-0.03612068
183	0xbe525416	-0.20539889
184	0xbf53e91d	-0.8277758
185	0xbcbaa256	-0.022782486
186	0xbe5a6c1f	-0.21330307
187	0x3e282a78	0.1642245
188	0xbe0b48a2	-0.13601926
189	0xbeb1a399	-0.34695128
190	0xbf3ea4aa	-0.7447001
191	0xbef700c2	-0.48242766
192	0x3c46d9d7	0.012136898
193	0xbedff070	-0.43738127
194	0xbf43c85b	-0.76477593
195	0xbed83b20	-0.4223261
196	0xbdc0a9ba	-0.09407373
197	0xbf3bcaa3	-0.73356074
198	0xbd248214	-0.040163115
199	0x3d3dd6f1	0.046347562

3.weight f4 [100, 200]
0	0xbdde8a84	-0.108662635
1	0xbdd9698d	-0.10615835
2	0xbd5177d2	-0.05113966
3	0x3df92f18	0.121671855
4	0xbdb2d8c2	-0.087327495
5	0xbdcf8e8a	-0.10134609
6	0x3b1bc620	0.0023769215
7	0xbe3193f9	-0.17341603
8	0xbe21ecb7	-0.15812956
9	0x3dc0db02	0.094167724
10	0x3d2bbe91	0.041929785
11	0xbde9b1d9	-0.11410875
12	0x3d7950a7	0.06086793
13	0xbd8ad4dd	-0.06778882
14	0xbddcfbe7	-0.10790234
15	0xbe5e75b5	-0.21724589
16	0xbdab5198	-0.08365172
17	0x3d62870f	0.055304583
18	0xbdfae08b	-0.122498594
19	0xbe42d47e	-0.19026372
20	0xbe66d386	-0.22541627
21	0xbe4914f2	-0.19636896
22	0x3c4b9f4d	0.012428117
23	0xbcd93409	-0.02651407
24	0xbd1a993a	-0.037743784
25	0xbe49167d	-0.19637485
26	0xbe609fac	-0.2193591
27	0x3e5cc44a	0.21559253
28	0x3de5a69e	0.1121342
29	0xbc453a85	-0.012037878
30	0xbdff46b8	-0.124646604
31	0xbdb71423	-0.08939388
32	0xbe4aff8d	-0.19824047
33	0xbe121354	-0.14265186
34	0x3c8b1d49	0.016981738
35	0xbc930b1f	-0.017949639
36	0xbd814273	-0.06311502
37	0xbe4d30f9	-0.20038213
38	0x3dc0c9db	0.09413501
39	0xbd993491	-0.07480729
40	0xbd483358	-0.04887709
41	0xbd87720e	-0.06613551
42	0xbe12d23a	-0.14338008
43	0xbd6d8268	-0.057985693
44	0xbe0341d5	-0.12818082
45	0xbddaf842	-0.10691883
46	0x3b4f3a76	0.0031620539
47	0x3d3396e7	0.043845084
48	0x3d2b2d6b	0.04179136
49	0xbddfea07	-0.10933309
50	0xbc067e0e	-0.008208765
51	0xbe2de3dc	-0.16981453
52	0xbe2a2b58	-0.16618097
53	0xbe2c0ad4	-0.16801006
54	0xbdbad7b0	-0.091231704
55	0xbe2fd869	-0.17172398
56	0xbdb9b3d0	-0.090675
57	0xbdd8dfcc	-0.10589561
58	0xbe8828aa	-0.26593524
59	0x3df2531c	0.11832258
60	0xbe5149e5	-0.20438345
61	0xbd707372	-0.058703847
62	0xbd002061	-0.03128088
63	0xbe2dcae0	-0.16971922
64	0xbd81f1f4	-0.06344977
65	0xbbb3a131	-0.005481862
66	0xbe288994	-0.16458732
67	0xbe10ac22	-0.14128163
68	0xbe660831	-0.22464062
69	0xbd1b4675	-0.03790899
70	0xbda2da2c	-0.07951769
71	0xbe5373af	-0.20649599
72	0x3d01e21f	0.031709787
73	0xbe10882a	-0.14114442
74	0xbde9e38c	-0.11420354
75	0xbddc33b0	-0.10752046
76	0x3c807b91	0.015683921
77	0xbe0d7423	-0.13813834
78	0x3d6a1267	0.057146456
79	0xbdd383a9	-0.103278466
80	0xbdaa84ef	-0.08326136
81	0x3dcaed65	0.09908561
82	0xbdd15dfe	-0.10223006
83	0xbe965573	-0.29362068
84	0xbd83bb37	-0.06432193
85	0x3cdb38da	0.026760507
86	0xbd84466d	-0.06458745
87	0xbe491e2d	-0.19640417
88	0x3dbbc67d	0.09168718
89	0xbc356418	-0.0110712275
90	0xbe2cac8a	-0.16862693
91	0xbdca0e1f	-0.09865975
92	0xbddd0973	-0.10792818
93	0xbeb2a632	-0.34892422
94	0x3be02924	0.006840842
95	0x3e2aec06	0.16691598
96	0xbd287cc2	-0.041134603
97	0xbe313ce3	-0.17308383
98	0x3c7c76af	0.015409156
99	0xbdfb5d57	-0.122736625
100	0xbcd219a6	-0.025646996
101	0xbe4e6adf	-0.20157956
102	0xbd3bfdb5	-0.04589625
103	0x3d707501	0.058705334
104	0xbe38c212	-0.18042782
105	0xbd38690d	-0.04502206
106	0xbc54131f	-0.012944012
107	0xbe63ca90	-0.2224524
108	0xbdf47ea9	-0.11938221
109	0x3d26806a	0.04064981
110	0xbe5248ad	-0.20535536
111	0xbaef1982	-0.0018241855
112	0xbe4ce813	-0.20010404
113	0xbe1e9919	-0.1548809
114	0xbd2a4f0e	-0.0415793
115	0x3d2082fe	0.039187424
116	0xbd9602e9	-0.07324774
117	0xbe37cb3c	-0.17948622
118	0xbdd42f0b	-0.10360535
119	0x3e00d2db	0.12580435
120	0xbd320181	-0.043458465
121	0xbdf6171c	-0.120161265
122	0xbe0b5177	-0.13605295
123	0xbe257aea	-0.16160169
124	0x3e1fe4df	0.15614651
125	0xbe45bd2c	-0.19310445
126	0xbdf1626b	-0.1178635
127	0xbc89ca6a	-0.016820151
128	0xbb5f5b54	-0.0034081535
129	0xbeb63de1	-0.35594085
130	0xbe712d15	-0.23552354
131	0xbc8bec39	-0.017080413
132	0xbd64958f	-0.055806693
133	0xbe5a6dff	-0.21331023
134	0xbd95a4f4	-0.07306853
135	0xbd5b5c41	-0.053554777
136	0xbdbc46d7	-0.09193199
137	0x3e210c5f	0.15727375
138	0x3da53a34	0.08067742
139	0xbe470fb7	-0.19439588
140	0xbca5591d	-0.020184094
141	0x3d507993	0.050897192
142	0xbe608eb7	-0.21929441
143	0xbd950b43	-0.072775386
144	0xbe2b5f69	-0.16735615
145	0xbd9174c4	-0.071023494
146	0xbe6dfab1	-0.23240162
147	0xbe47ab4c	-0.19498938
148	0xbe832971	-0.25617555
149	0xbdb6cd31	-0.08925856
150	0xbde13ace	-0.10997544
151	0xbdabf81b	-0.08396932
152	0xbd963d2a	-0.07335885
153	0x3c7c4adf	0.01539871
154	0xbdbe8ac5	-0.09303812
155	0xbe27053c	-0.1631059
156	0xbe821bf3	-0.2541195
157	0xbe03ef43	-0.1288424
158	0xbcf54e1d	-0.029944474
159	0xbd2eb635	-0.042654235
160	0xbd90e10d	-0.07074175
161	0xbd81643d	-0.06317947
162	0xbd596670	-0.053076208
163	0xbd93a70a	-0.072095945
164	0xbe3670e5	-0.17816503
165	0x3d5f593b	0.054528456
166	0x3da754f0	0.081704974
167	0xbdcac5aa	-0.09900983
168	0xbe4a0a8f	-0.1973059
169	0xbcd4c24f	-0.02597156
170	0xbd9c2341	-0.07623912
171	0xbe2fd23b	-0.1717004
172	0x3d9504e1	0.07276321
173	0xbe08e729	-0.1336943
174	0xbe3fbf16	-0.18725237
175	0xbdb983fc	-0.09058377
176	0xbde6e063	-0.11273267
177	0xbe4a7592	-0.19771412
178	0xbe0e6802	-0.13906863
179	0xbe8948f9	-0.26813486
180	0xbdc08dba	-0.09402032
181	0xbdbae732	-0.09126128
182	0xbe48b1d1	-0.19599082
183	0x3c4bf188	0.012447722
184	0xbd8acf93	-0.06777873
185	0xbe0592ce	-0.13044283
186	0xbde4cccc	-0.111718744
187	0xbdcb796a	-0.09935267
188	0x3c84123b	0.016121974
189	0x3c4b1243	0.012394491
190	0xbe580cae	-0.21098587
191	0xbcde51e4	-0.027138658
192	0xbd7fc1f7	-0.06244084
193	0xbe5eb9ea	-0.21750608
194	0x3cf9633d	0.030442828
195	0xbce0ac65	-0.027425954
196	0xbe0ab064	-0.1354385
197	0xbd7413fb	-0.059589367
198	0xbd818cd0	-0.06325686
199	0xbc9048ec	-0.017612897
200	0xbe0e626e	-0.13904735
201	0xbec0a12c	-0.37622964
202	0x3ba6b403	0.005087377
203	0x3d52fe30	0.051511943
204	0xbe90675e	-0.28203863
205	0xbde57c3f	-0.11205339
206	0xbebfd5e3	-0.3746787
207	0xbecd69ad	-0.40119687
208	0xbea369e8	-0.31916738
209	0x3e2dcbbb	0.16972248
210	0x3e277c12	0.16355923
211	0xbe20d130	-0.15704799
212	0x3eaff282	0.34364706
213	0xbe9490e7	-0.29016802
214	0xbe8dc383	-0.27688226
215	0xbe38744b	-0.18013112
216	0xbe7abd9e	-0.24486396
217	0xbda76d1d	-0.081751086
218	0x3e2aa211	0.16663386
219	0xbcbef385	-0.023309479
220	0x3c810938	0.015751466
221	0x3bb14480	0.005409777
222	0xbe3c6b88	-0.18400395
223	0x3dc03240	0.093845844
224	0xbdc2a6e3	-0.09504487
225	0xbd02df17	-0.031951036
226	0xbec47d3f	-0.38376805
227	0xbe938a65	-0.28816524
228	0x3e1a6505	0.15077598
229	0xbe4abc8a	-0.19798484
230	0xbec43e50	-0.3832879
231	0xbc887a22	-0.0166598
232	0xbe1c66a3	-0.15273528
233	0xbe502844	-0.2032786
234	0x3ef91173	0.48646125
235	0xbe8119fa	-0.2521513
236	0x3dea0994	0.11427608
237	0x3d64dc24	0.055874005
238	0x3de3de75	0.11126415
239	0xbe5d89bd	-0.21634574
240	0x3c013566	0.007886266
241	0xbe40e04e	-0.18835565
242	0x3db8bef0	0.090207934
243	0xbe213a07	-0.15744792
244	0x3e40bffe	0.18823239
245	0xbe215f53	-0.1575902
246	0xbcd5c100	-0.026093006
247	0xbe390a5b	-0.18070357
248	0x3d7526e4	0.059851542
249	0x3e46bc9e	0.19407889
250	0xbdcb805e	-0.099365935
251	0xbe51a90a	-0.2047464
252	0xbeb4947d	-0.35269538
253	0xbe3a6a73	-0.1820467
254	0xbd882457	-0.06647556
255	0xbdb020dd	-0.08600018

3.bias f4 [100]
0	0xbdc8b094	-0.097993046
1	0x3d1e42c2	0.038637884
2	0xbcef0c8a	-0.029180784
3	0x3d2df737	0.04247209
4	0x3d4c64f4	0.049900964
5	0xbd134382	-0.035953052
6	0x3d8920f4	0.066957384
7	0xbe30ae1c	-0.17253917
8	0x3c51e220	0.01281026
9	0xbd5a848e	-0.05334907
10	0xbd7bcfa9	-0.061477337
11	0xbf0ee53d	-0.5581854
12	0xbec0ff09	-0.37694576
13	0x3d34ffbf	0.04418921
14	0xbc1430e6	-0.009044861
15	0xbda6ef3c	-0.08151099
16	0xbe0c2c1d	-0.13688703
17	0xbe0a558d	-0.13509198
18	0xbd361218	-0.04445085
19	0x3d327f06	0.04357817
20	0xbdf2f6de	-0.118634924
21	0x3d10431c	0.03522025
22	0xbe01f20b	-0.12689988
23	0xbe86e12a	-0.26343662
24	0x3c16a4e3	0.0091945855
25	0xbde3ef2a	-0.11129601
26	0xbe8f4c37	-0.27987835
27	0x3d1bb157	0.03801092
28	0x3c383397	0.011242769
29	0x3d14d2c3	0.03633381
30	0x3d11480f	0.03546911
31	0xbd454bfc	-0.048168167
32	0xbd7c1ba9	-0.061549816
33	0xbbd132f6	-0.006384249
34	0x3d416e3a	0.04722426
35	0x3d4d2c60	0.050091147
36	0xbe046e07	-0.12932597
37	0xbd36e642	-0.044653185
38	0x3cb7c181	0.022431137
39	0x3ce54a23	0.027989453
40	0x3d23267a	0.039831616
41	0x3b3a31e2	0.002841108
42	0x3d13ab09	0.036051784
43	0xbba3b456	-0.004995863
44	0xbf6b7ea0	-0.9199009
45	0xbc900d17	-0.017584367
46	0xbdb5187d	-0.088425614
47	0xbc70bcd5	-0.014693459
48	0xbe33fa17	-0.1757587
49	0xbdf4f2e5	-0.11960391
50	0x3d911d24	0.07085636
51	0x3d2e04b3	0.04248495
52	0x3d554ad2	0.052073307
53	0xbd7c3259	-0.061571453
54	0xbe3b53ed	-0.18293734
55	0x3cde99d4	0.02717296
56	0xbd988874	-0.07447901
57	0xbe7fce58	-0.24981058
58	0xbdc455f9	-0.095867105
59	0x3d69c463	0.057072055
60	0x3d77d1bb	0.06050275
61	0xbdfc354e	-0.123148546
62	0xbdc1095d	-0.09425614
63	0x3dbcd3f7	0.092201166
64	0xbca2bc86	-0.019865286
65	0xbe0db5e2	-0.13838914
66	0x3d2b2096	0.041779123
67	0xbf5eca5f	-0.87027544
68	0xbe1d33f3	-0.15351848
69	0x3df79df1	0.12090672
70	0xbd5c4221	-0.053774003
71	0x3d509c78	0.05093047
72	0x3aac4c23	0.0013145249
73	0xbd0c8ad1	-0.034312073
74	0xbdb41199	-0.08792419
75	0xbda396ba	-0.07987733
76	0x3d1dea6a	0.038553633
77	0xbd57fdee	-0.0527324
78	0x3bbc67dd	0.005749686
79	0x3d7df205	0.061998386
80	0xbd380f11	-0.044936243
81	0x3d0a6994	0.033792093
82	0x3d0385c9	0.03211001
83	0x3d7994bd	0.060932864
84	0xbd137579	-0.036000703
85	0x39fa6bfc	0.0004776417
86	0x3ccdfab0	0.025143951
87	0xbdf8ae19	-0.121425815
88	0xbdd894f8	-0.105752885
89	0xbdf73464	-0.120705396
90	0x3d67ddcc	0.056608006
91	0x3dbac7ef	0.091201656
92	0x3cc13007	0.023582472
93	0xbd4182ff	-0.04724407
94	0x3c3a4a28	0.011370219
95	0x3cf63be3	0.030057853
96	0x3d81ea4f	0.06343519
97	0xbc90188d	-0.017589832
98	0x3d61ebd4	0.055156544
99	0x3ce3f7b9	0.027828084

6.weight f4 [50, 100]
0	0x3d9d2d42	0.07674648
1	0xbcc29f42	-0.02375758
2	0x3e94af2a	0.2903989
3	0xbd8b30d5	-0.06796423
4	0x3e8de06d	0.27710286
5	0x3e8d8ada	0.27644998
6	0xbdf98ce2	-0.121850744
7	0xbe804cc3	-0.25058565
8	0x3ea80944	0.3281957
9	0x3df315fb	0.11869427
10	0x3e4cb58a	0.19991127
11	0xbd857a72	-0.06517495
12	0xbdd85de9	-0.10564787
13	0x3d1e164d	0.038595486
14	0x3e901efa	0.28148633
15	0xbd5e8b30	-0.05433196
16	0x3cb3594b	0.021893164
17	0x3e143b64	0.1447578
18	0x3ec13c1c	0.37741172
19	0xbe34980e	-0.1763613
20	0xbcd7a6c8	-0.026324645
21	0x3e8a1889	0.26971844
22	0x3dc75437	0.097328596
23	0xbe4bd888	-0.19906819
24	0xbe120235	-0.14258654
25	0x3e092375	0.13392432
26	0xbdba8a66	-0.09108429
27	0xbc581b7e	-0.013190148
28	0x3e16b509	0.14717497
29	0x3eb40b60	0.35164928
30	0x3ec92874	0.39288676
31	0x3e9fac11	0.31185964
32	0x3e95ed50	0.29282618
33	0xbd92b9b7	-0.071643285
34	0x3ee0e6b7	0.4392602
35	0xbe105906	-0.1409646
36	0xbc662326	-0.014046466
37	0x3ec06e8e	0.37584347
38	0xbe4d2319	-0.2003292
39	0x3ea36677	0.31914112
40	0xbd62158d	-0.055196334
41	0xbaaa9128	-0.0013013231
42	0xbd8d06f4	-0.06886092
43	0x3e9a0137	0.30079052
44	0xbe891901	-0.2677689
45	0xbe180f59	-0.14849605
46	0x3d615de0	0.055021167
47	0xbd41713f	-0.04722714
48	0x3c0cb7b6	0.008588722
49	0xbe247a01	-0.16062166
50	0x3e33c697	0.17556225
51	0x3eb5eea5	0.35533634
52	0x3e84f888	0.25970864
53	0xbd8269df	-0.063678496
54	0xbc8fa3d2	-0.01753417
55	0xbd0f81cd	-0.035035897
56	0x3dafd710	0.08585942
57	0xbec8bbb0	-0.39205694
58	0x3e4c5396	0.1995376
59	0xbdc7c7e3	-0.09754922
60	0x3d5b2b3b	0.053508025
61	0x3df48aa5	0.11940507
62	0xbd8fb911	-0.070177205
63	0xbcd89af5	-0.026441077
64	0x3ec38119	0.3818443
65	0xbda957a1	-0.08268667
66	0x3eefa5ac	0.46806085
67	0xbe3ce5ff	-0.18447112
68	0x3e01f347	0.12690459
69	0x3de6b0d1	0.11264194
70	0x3db3008f	0.08740341
71	0xbdb70278	-0.08936018
72	0x3ea23460	0.31680584
73	0xbd28216e	-0.041047506
74	0x3de045c3	0.10950806
75	0x3db12ede	0.08651517
76	0xbc32aab9	-0.010904961
77	0xbbd8a1b9	-0.0066110757
78	0xbd37696c	-0.044778273
79	0xbd852cdd	-0.065026976
80	0xbd3c49d0	-0.04596883
81	0x3eab45b7	0.33451626
82	0x3eb2b6a1	0.3490496
83	0xbe021e25	-0.12706812
84	0x3ee65f6d	0.4499468
85	0x3dd89216	0.10574739
86	0xbdfa93d4	-0.12235227
87	0xbc35dcb0	-0.011099979
88	0x3c94b1c7	0.018151177
89	0x3db6b476	0.08921139
90	0xbda792cc	-0.08182296
91	0x3ead5f7a	0.33861905
92	0x3e4bed5a	0.19914761
93	0x3e50a5f6	0.20375809
94	0xbcba528f	-0.022744445
95	0xbe0c7ff5	-0.13720687
96	0x3da3678a	0.07978733
97	0x3da7cf26	0.08193807
98	0xbdecf918	-0.11570948
99	0x3ee3634a	0.4441169
100	0x3debbcbc	0.115106076
101	0xbd5073a5	-0.050891537
102	0x3e92a045	0.286379
103	0xbe45d95a	-0.19321194
104	0x3e1e5a5d	0.15464158
105	0x3eb22f32	0.34801632
106	0xbdfaad80	-0.12240124
107	0xbd9a36da	-0.07529993
108	0x3eec015d	0.4609479
109	0x3e1505e5	0.1455303
110	0x3e54c399	0.2077774
111	0xbd5e928f	-0.054338988
112	0xbe393bd8	-0.18089235
113	0xbca21bb3	-0.019788599
114	0x3ec5ab44	0.38607228
115	0x3d253b2e	0.04033964
116	0xbc84df39	-0.016219722
117	0xbe181632	-0.14852217
118	0x3eeeeeed	0.4666666
119	0xbda18e00	-0.078884125
120	0x3db50f8b	0.08840855
121	0x3e80150f	0.25016066
122	0xbcf3a37a	-0.029741038
123	0xbdf93467	-0.12168198
124	0xbd917411	-0.07102216
125	0x3d1ec33d	0.038760412
126	0xbe661d66	-0.22472152
127	0xbd1a107d	-0.03761338
128	0x3e8f38bc	0.27972972
129	0x3e93fb53	0.28902683
130	0x3eaf36f5	0.34221616
131	0x3e9c8026	0.3056652
132	0x3e5e6de2	0.21721604
133	0xbd917728	-0.071028054
134	0x3ed8f0d7	0.42371246
135	0xbdd06d7f	-0.10177135
136	0x3e116520	0.14198732
137	0x3ea4b3e5	0.321685
138	0xbe69e777	-0.22842203
139	0x3e1f8b27	0.15580426
140	0xbdc6735f	-0.09689974
141	0x3b9ac51a	0.0047232034
142	0xbe26fcde	-0.16307399
143	0x3e9a279a	0.3010834
144	0xbe58293e	-0.21109483
145	0x3db937fc	0.09043881
146	0x3d6d9361	0.05800188
147	0x3da34db9	0.07973809
148	0x3dad13a1	0.084510095
149	0xbe928731	-0.28618768
150	0xbd6647cc	-0.056220815
151	0x3e26cf4c	0.16290015
152	0x3dac9fc0	0.084289074
153	0xbabd52d0	-0.0014444236
154	0x3e0a4f9f	0.13506936
155	0xbe3cf351	-0.18452193
156	0x3d9878b2	0.07444896
157	0xbe5040e4	-0.20337254
158	0x3e5a9b63	0.21348338
159	0xbd8cd962	-0.068774
160	0x3b7a1a39	0.0038162603
161	0xbdfc5802	-0.12321474
162	0x3d230b6e	0.039805822
163	0x3df6aae8	0.120443165
164	0x3eb06d4e	0.34458393
165	0xbe0d8c91	-0.13823153
166	0x3e9615a4	0.29313385
167	0xbd8a2b24	-0.0674651
168	0x3ddbce1c	0.107326716
169	0xbc10a2e6	-0.0088279005
170	0x3c1a24ca	0.009408185
171	0x3caafa38	0.020871267
172	0x3ea234f8	0.31681037
173	0x3d66870e	0.056281142
174	0x3defcf08	0.1170941
175	0x3d8e09b8	0.069354475
176	0x3c0e791a	0.008695865
177	0x3ba8b7e5	0.005148875
178	0x3d94bc49	0.07262475
179	0xbd72c4cb	-0.059269708
180	0xbd1cd11f	-0.03828537
181	0x3e9874d7	0.29776642
182	0x3e9c6a8c	0.3055004
183	0x3dadb22c	0.08481249
184	0x3e734aff	0.23759077
185	0x3cf7bc70	0.030241221
186	0x3e0d51ff	0.1380081
187	0x3d2a8d9f	0.041638967
188	0xbc9cd2fd	-0.019143576
189	0x3e1ba708	0.15200436
190	0xbd0d2b02	-0.034464844
191	0x3e463b89	0.19358648
192	0x3e4dce0a	0.20098129
193	0x3e4e3854	0.20138675
194	0xbaf0e7ea	-0.0018379663
195	0xbe270ad0	-0.16312718
196	0x3b137e8a	0.0022505843
197	0x3d846db7	0.06466239
198	0xbe568f04	-0.20952994
199	0x3eabd16c	0.33558214
200	0x3db78f98	0.08962935
201	0x3db9fbe5	0.09081248
202	0xbec8a505	-0.391884
203	0x3e94dc97	0.29074547
204	0xbe801b34	-0.25020754
205	0xbec3134a	-0.38100654
206	0x3e8b41df	0.27198693
207	0xbd7b0f92	-0.061294146
208	0xbe64deec	-0.22350663
209	0xbd562cbd	-0.05228876
210	0xbefc187c	-0.4923743
211	0xbdc42d18	-0.095789135
212	0xbd8bc6ce	-0.06825028
213	0xbe9e8e27	-0.3096783
214	0xbeef9756	-0.46795148
215	0xbd5df4d6	-0.054188572
216	0xbdd6f1e8	-0.10495359
217	0x3dda34b8	0.106545866
218	0xbf067b73	-0.5253212
219	0x3e6407bd	0.22268577
220	0xbe35cb15	-0.17753251
221	0xbe575c3b	-0.21031277
222	0xbde7a48c	-0.11310682
223	0xbd1a889e	-0.037727945
224	0x3e67e049	0.22644152
225	0x3cdc20ae	0.026871052
226	0xbd62e067	-0.055389788
227	0x3ed51e1c	0.41624534
228	0xbea5c74b	-0.3237861
229	0xbf021f23	-0.5082876
230	0xbea38fa5	-0.3194553
231	0xbeb9dad1	-0.36299756
232	0xbe185fb7	-0.14880262
233	0x3d33096f	0.04371017
234	0xbe5973d2	-0.21235588
235	0x3ed7cf71	0.42150453
236	0xbe1d4195	-0.15357049
237	0xbedcc44c	-0.43118513
238	0x3de46cec	0.11153588
239	0xbe7e2da8	-0.24822104
240	0x3eec71c6	0.46180552
241	0x3c948eed	0.018134559
242	0xbe913678	-0.2836187
243	0xbe8952b0	-0.26820898
244	0xbe2cef16	-0.16888079
245	0xbeb5d537	-0.35514233
246	0x3c40127b	0.011723156
247	0xbb53f5e8	-0.0032342616
248	0xbc59eb79	-0.01330077
249	0xbe3bb2c0	-0.18329906
250	0xbe351a91	-0.17685916
251	0xbe9a35a9	-0.30119064
252	0xbecbc849	-0.39801243
253	0x3d689f1b	0.05679236
254	0xbe86f1b6	-0.26356286
255	0xbeaa19c7	-0.33222792

6.bias f4 [50]
0	0x3c96060b	0.018313428
1	0x3cb924a7	0.022600485
2	0x3eac06e3	0.33599004
3	0x3ecfe3aa	0.4060338
4	0x3e9e4f6a	0.30919963
5	0x3eaceb23	0.33773145
6	0x3d172de2	0.03690899
7	0x3db744d5	0.089486755
8	0x3e9b8052	0.30371338
9	0x3d8e6109	0.06952102
10	0x3a8484cf	0.0010110381
11	0xbb86b7a5	-0.0041112476
12	0x3e6268e6	0.22110328
13	0x3caae5db	0.020861557
14	0x3ce904d7	0.02844469
15	0x3e98774c	0.29778516
16	0x3e81e047	0.25366423
17	0x3e967319	0.29384688
18	0x3c45844e	0.01205547
19	0x3d124b48	0.035716325
20	0xbdf7c856	-0.12098758
21	0x3d2e6f8d	0.042586852
22	0x3eab91a0	0.3350954
23	0x3e06861d	0.13137098
24	0x3e7c0f63	0.24615245
25	0x3c0ee476	0.0087214615
26	0x3e9e642a	0.30935794
27	0x3e9abc68	0.30221868
28	0x3cc61c44	0.0241834
29	0x3d6fe28c	0.05856566
30	0x3e9b2b30	0.30306387
31	0x3e923f91	0.28564122
32	0x3e9c7229	0.30555847
33	0x3d3caeed	0.04606526
34	0x3e367069	0.17816319
35	0x3e54f00f	0.207947
36	0x3d729386	0.05922272
37	0x3d6c14cf	0.057637032
38	0x3d664b19	0.056223962
39	0x3d86b5d8	0.06577653
40	0xbdd481f6	-0.103763506
41	0x3e7f206d	0.24914713
42	0x3dc9ba6c	0.0985001
43	0x3c427dad	0.011870784
44	0xbf120500	-0.5703888
45	0x3e9de44d	0.30838242
46	0x3eb47674	0.35246623
47	0x3d4d4e5d	0.05012356
48	0x3ed21d8b	0.41038164
49	0x3d4d48d4	0.050118282

9.weight f4 [1, 50]
0	0xbecfd238	-0.40590072
1	0xbea547ca	-0.32281333
2	0x3ea0658e	0.3132748
3	0x3eca9376	0.3956563
4	0x3ed02fe6	0.40661544
5	0x3ee04e7b	0.43809876
6	0xbe7a2ea1	-0.2443185
7	0xbd78b8dd	-0.060723174
8	0x3ecb63b9	0.3972452
9	0xbe242018	-0.16027868
10	0xbe80f8b5	-0.25189748
11	0xbee3863c	-0.4443835
12	0x3f0b07e2	0.54308903
13	0xbeafa2b9	-0.34303835
14	0xbebccace	-0.36873478
15	0x3ec669bc	0.38752544
16	0x3ee56a6c	0.44807756
17	0x3eca6bbb	0.39535317
18	0xbd41a6be	-0.04727816
19	0xbeac23f3	-0.33621177
20	0x3c4cf24f	0.012508943
21	0xbeaf831f	-0.34279725
22	0x3eb8b5de	0.36076254
23	0xbe123e06	-0.14281473
24	0x3ee033b2	0.4378944
25	0xbe8d12ad	-0.2755331
26	0x3ee6adfa	0.4505461
27	0x3ed38028	0.41308713
28	0xbec07da8	-0.37595868
29	0xbe526773	-0.20547275
30	0x3ee9e3e7	0.45681688
31	0x3f0433ba	0.5164143
32	0x3efc4f35	0.4927918
33	0xbeb2bd44	-0.34910023
34	0x3f13c9d9	0.5772987
35	0x3f22f755	0.6365865
36	0xbe95d060	-0.2926054
37	0xbe5f745c	-0.21821731
38	0xbe9e70df	-0.3094549
39	0xbe2f0175	-0.170904
40	0x3d7bdc21	0.06148923
41	0x3ea5600a	0.32299834
42	0xbd39c8ae	-0.0453574
43	0xbe2c9bc2	-0.16856292
44	0x3de39339	0.11112065
45	0x3eee6207	0.46559164
46	0x3edb7708	0.4286425
47	0xbe8bbaa0	-0.2729082
48	0x3e7b026b	0.24512641
49	0xbe7ea984	-0.24869353
